…
==================================================================================================
Total params: 1,769,164
Trainable params: 1,769,164
Non-trainable params: 0
__________________________________________________________________________________________________
Model: "encoder"
__________________________________________________________________________________________________
Layer (type)                    Output Shape         Param #     Connected to                     
==================================================================================================
input_2 (InputLayer)            [(None, 128, 128, 3) 0                                            
__________________________________________________________________________________________________
conv-layer-0 (CoordConv2D)      (None, 64, 64, 32)   1472        input_2[0][0]                    
__________________________________________________________________________________________________
activation (Activation)         (None, 64, 64, 32)   0           conv-layer-0[0][0]               
__________________________________________________________________________________________________
conv-layer-1 (CoordConv2D)      (None, 32, 32, 32)   9824        activation[0][0]                 
__________________________________________________________________________________________________
activation_1 (Activation)       (None, 32, 32, 32)   0           conv-layer-1[0][0]               
__________________________________________________________________________________________________
conv-layer-2 (CoordConv2D)      (None, 16, 16, 64)   19648       activation_1[0][0]               
__________________________________________________________________________________________________
activation_2 (Activation)       (None, 16, 16, 64)   0           conv-layer-2[0][0]               
__________________________________________________________________________________________________
conv-layer-3 (CoordConv2D)      (None, 8, 8, 64)     38080       activation_2[0][0]               
__________________________________________________________________________________________________
activation_3 (Activation)       (None, 8, 8, 64)     0           conv-layer-3[0][0]               
__________________________________________________________________________________________________
encoder-flatten (Flatten)       (None, 4096)         0           activation_3[0][0]               
__________________________________________________________________________________________________
encoder-pre-fc (Dense)          (None, 256)          1048832     encoder-flatten[0][0]            
__________________________________________________________________________________________________
encoder-last-fc (Dense)         (None, 32)           8224        encoder-pre-fc[0][0]             
__________________________________________________________________________________________________
dense (Dense)                   (None, 128)          4224        encoder-last-fc[0][0]            
__________________________________________________________________________________________________
dense_1 (Dense)                 (None, 128)          4224        encoder-last-fc[0][0]            
==================================================================================================
Total params: 1,134,528
Trainable params: 1,134,528
Non-trainable params: 0
__________________________________________________________________________________________________
Model: "decoder"
__________________________________________________________________________________________________
Layer (type)                    Output Shape         Param #     Connected to                     
==================================================================================================
input_3 (InputLayer)            [(None, 128)]        0                                            
__________________________________________________________________________________________________
decoder-first-fc (Dense)        (None, 4096)         528384      input_3[0][0]                    
__________________________________________________________________________________________________
reshape (Reshape)               (None, 8, 8, 64)     0           decoder-first-fc[0][0]           
__________________________________________________________________________________________________
transp-conv-layer-0 (CoordConv2 (None, 16, 16, 64)   38080       reshape[0][0]                    
__________________________________________________________________________________________________
activation_4 (Activation)       (None, 16, 16, 64)   0           transp-conv-layer-0[0][0]        
__________________________________________________________________________________________________
transp-conv-layer-1 (CoordConv2 (None, 32, 32, 64)   38080       activation_4[0][0]               
__________________________________________________________________________________________________
activation_5 (Activation)       (None, 32, 32, 64)   0           transp-conv-layer-1[0][0]        
__________________________________________________________________________________________________
transp-conv-layer-2 (CoordConv2 (None, 64, 64, 32)   19040       activation_5[0][0]               
__________________________________________________________________________________________________
activation_6 (Activation)       (None, 64, 64, 32)   0           transp-conv-layer-2[0][0]        
__________________________________________________________________________________________________
transp-conv-layer-3 (CoordConv2 (None, 128, 128, 32) 9824        activation_6[0][0]               
__________________________________________________________________________________________________
activation_7 (Activation)       (None, 128, 128, 32) 0           transp-conv-layer-3[0][0]        
__________________________________________________________________________________________________
decoder-image (CoordConv2D)     (None, 128, 128, 3)  921         activation_7[0][0]               
__________________________________________________________________________________________________
decoder-raw-confidence (CoordCo (None, 128, 128, 1)  307         activation_7[0][0]               
==================================================================================================
Total params: 634,636
Trainable params: 634,636
Non-trainable params: 0
__________________________________________________________________________________________________
